…
'APBB2_MOUSE', 'PAGP_ECO57', 'SLOB_DROME', 'RFLA_MOUSE', 'MPC_ARATH', 'MYO1A_HUMAN', 'CHM4B_MOUSE', 'EF2_DICDI', 'HINT3_ARATH', 'IGH1M_MOUSE', 'VPS45_ARATH', 'APBB1_MOUSE', 'EF1G_HUMAN', 'SMG9_MOUSE', 'CP51C_ASPFN', 'BIOA_MYCTU', 'SYT4_MOUSE', 'P2C22_ARATH', 'BI1_ARATH', 'PPIB_ECOLI', 'HMX_CAEEL', 'VSR_ECOLI', 'ARAF_RAT', 'VITH2_ARATH', 'TSP17_CAEEL', 'AMIE_HELPY', 'LECA_PHYAM', 'ASI3_YEAST', 'LAX1_HUMAN', 'LIGK_SPHSK', 'MED31_MOUSE', 'TSAP1_MOUSE', 'CRTC2_RAT', 'CPS2_ORYSJ', 'ORAI_CAEEL', 'ACBP_YEAST', 'CHMP3_HUMAN', 'GSPC2_DICD3']
EsmModel(
  (embeddings): EsmEmbeddings(
    (word_embeddings): Embedding(33, 1280, padding_idx=1)
    (dropout): Dropout(p=0.0, inplace=False)
    (position_embeddings): Embedding(1026, 1280, padding_idx=1)
  )
  (encoder): EsmEncoder(
    (layer): ModuleList(
      (0-32): 33 x EsmLayer(
        (attention): EsmAttention(
          (self): EsmSelfAttention(
            (query): Linear(in_features=1280, out_features=1280, bias=True)
            (key): Linear(in_features=1280, out_features=1280, bias=True)
            (value): Linear(in_features=1280, out_features=1280, bias=True)
            (dropout): Dropout(p=0.0, inplace=False)
            (rotary_embeddings): RotaryEmbedding()
          )
          (output): EsmSelfOutput(
            (dense): Linear(in_features=1280, out_features=1280, bias=True)
            (dropout): Dropout(p=0.0, inplace=False)
          )
          (LayerNorm): LayerNorm((1280,), eps=1e-05, elementwise_affine=True)
        )
        (intermediate): EsmIntermediate(
          (dense): Linear(in_features=1280, out_features=5120, bias=True)
        )
        (output): EsmOutput(
          (dense): Linear(in_features=5120, out_features=1280, bias=True)
          (dropout): Dropout(p=0.0, inplace=False)
        )
        (LayerNorm): LayerNorm((1280,), eps=1e-05, elementwise_affine=True)
      )
    )
    (emb_layer_norm_after): LayerNorm((1280,), eps=1e-05, elementwise_affine=True)
  )
  (pooler): EsmPooler(
    (dense): Linear(in_features=1280, out_features=1280, bias=True)
    (activation): Tanh()
  )
  (contact_head): EsmContactPredictionHead(
    (regression): Linear(in_features=660, out_features=1, bias=True)
    (activation): Sigmoid()
  )
)
  0%|          | 0/822 [00:00<?, ?it/s]  0%|          | 1/822 [00:23<5:15:11, 23.03s/it]  0%|          | 2/822 [00:45<5:07:46, 22.52s/it]  0%|          | 3/822 [01:07<5:03:22, 22.22s/it]  0%|          | 4/822 [01:29<5:02:57, 22.22s/it]  1%|          | 5/822 [01:51<5:03:11, 22.27s/it]  1%|          | 6/822 [02:13<5
…
